app/src/main/ml/squat.tflite (tflite, 44692 bytes, 6 tensors)

sequential/dense_1/BiasAdd/ReadVariableOp f4 [32]
00000000: 0000 0000 0000 0000 1348 87bb 177f 873b
00000010: 7530 7a3b 1ba9 c2b9 0000 0000 ac86 13bc
00000020: 84f7 833c b540 e53b c108 85bb 0000 0000
00000030: 3d17 93bc 9cbe 56bb 6acf 893b 0000 0000
00000040: c1ac 86bb 0000 0000 9cf8 153c 139c 2cbc
00000050: 0000 0000 773c 5d3c 0000 0000 660d 9c3b
00000060: 0000 0000 0000 0000 38ab 253b ee13 863b
00000070: a3e6 853b 8a32 52bc 0000 0000 0000 0000
0.0 0.0 -0.004128465 0.0041350233 0.0038175855 -0.00037128557 0.0 -0.009004276
0.016109236 0.006996239 -0.0040598814 0.0 -0.017955417 -0.003276742 0.004205634 0.0
-0.0041099493 0.0 0.009153511 -0.010535258 0.0 0.0135031855 0.0 0.0047623394
0.0 0.0 0.0025279056 0.0040917313 0.004086332 -0.012829432 0.0 0.0

sequential/dense_2/BiasAdd/ReadVariableOp f4 [2]
00000000: 1351 87bb 0f51 873b
-0.004129538 0.004129536

sequential/dense/BiasAdd/ReadVariableOp f4 [64]
00000000: 0000 0000 a77c 403c 3ac7 5d3b 0000 0000
00000010: 506d e8bb 0000 0000 0000 0000 e173 cfba
00000020: 4ca7 3db8 0000 0000 b584 1a3c 4b39 a33c
00000030: 8ae6 883c e560 f43b c8b7 b13b 12e3 52bb
00000040: 0000 0000 e857 c1bb 0000 0000 0000 0000
00000050: bdb8 e9bb 0000 0000 d2b4 1e3c 0000 0000
00000060: 9fda 823c 0000 0000 f120 77bb 3fb3 60bb
00000070: 0000 0000 0000 0000 0000 0000 0000 0000
00000080: 0000 0000 0000 0000 8bc7 3f3c 0250 40bb
00000090: f3a4 91ba 8fca 9bbb 3604 b73a b352 b43b
000000a0: 9b6f a13c 4b0c 0cbc fd5c 95bb 0000 0000
000000b0: 0000 0000 90eb 733b 4e5a c4bb d507 853c
000000c0: a576 943a 0000 0000 0000 0000 099b dfbb
000000d0: 0000 0000 6ac3 73ba 0000 0000 0000 0000
000000e0: 0000 0000 0000 0000 fd63 9e3b 8ed9 0ebc
000000f0: 0000 0000 83d7 933c 55a2 433c a2c6 febb
0.0 0.011748469 0.0033840672 0.0 -0.007093109 0.0 0.0 -0.0015827381
-4.521692e-05 0.0 0.009431054 0.01992478 0.016711492 0.00745784 0.0054235198 -0.0032178801
0.0 -0.005900372 0.0 0.0 -0.007132618 0.0 0.009686666 0.0
0.015973387 0.0 -0.0037708844 -0.0034286526 0.0 0.0 0.0 0.0
0.0 0.0 0.01170529 -0.0029344563 -0.0011111781 -0.0047543715 0.0013963047 0.0055030226
0.019706538 -0.008547853 -0.004558204 0.0 0.0 0.0037219264 -0.0059922105 0.016239086
0.0011326863 0.0 0.0 -0.0068239016 0.0 -0.00092988333 0.0 0.0
0.0 0.0 0.004833697 -0.008718861 0.0 0.0180471 0.011940558 -0.0077751437

sequential/dense/MatMul f4 [64, 132]
00000000: ba91 a33d c06a 6c3b 90f3 8bbc 80ec d23a
00000010: f821 ac3c b05a ef3c ec7c 083d 90b9 1cbc
00000020: e93e 223e 1c58 453d f3f8 0dbe cee4 b13d
00000030: e61a b4bd 296e 1c3e 04ae 28bd eda3 c0bd
00000040: 68f4 f0bd 94cb f6bd 0af2 f7bd 7021 0e3c
00000050: 100e 0ebe 9050 a7bd 384e b93c 36d5 e83d
00000060: 7d05 8bbd c5d8 cdbd e6ad 19be 0037 073d
00000070: b607 15be b638 bb3d 60d3 573c 7c9b 06be
00000080: 01cf 2d3e a364 c6bd cba5 27be 2c8d 88bd
00000090: d51f 86bd d8a7 06bd 585f 43bd 73bf 31be
000000a0: bded 313e c6cd eebd 307a 613d 5173 c9bd
000000b0: 1a7b c83d 4041 4dbc 983c abbc 32ff a23d
000000c0: 90bb 78bc b4e1 223d d09f 3ebc 4060 cd3b
000000d0: 8a73 dc3d 8410 16be b150 2b3e 0639 b63d
000000e0: 245e 14bd 49ad 0fbe 218b 89bd 21e5 093e
000000f0: 62d5 f2bd 6e3a aebd 8e62 a53d c29c a73d
00000100: 80b5 673b 2e2e f13d 2f78 253e d0f2 343c
00000110: 12f5 cd3d c6c8 e23d 83af 163e 00b6 21bd
00000120: bb2d 04be 409a a43b a24f ec3d 89c7 013e
00000130: 14af 7c3d 39a2 123e f324 0bbe c032 563d
00000140: 431a 113e b4b9 873d d86d 8fbc 06e2 b8bd
00000150: c806 b83c bf89 20be 60c4 d9bc a51e 05be
00000160: e69c 873d a1e7 12be 32e3 0abe 2f35 b1bd
00000170: 9828 d2bc 38ab 37bd f78d 27be 8090 bcbb
00000180: a713 dabd ee01 e13d 42aa b83d 56a4 edbd
00000190: de7f a53d 8922 2ebe 5940 bdbd 9ab8 9a3d
000001a0: 189e c2bd a0d4 ca3c 021a 27be 3c6a 933d
000001b0: 57b2 2dbe 4c3c 183d 4865 2cbd 64b7 c0bd
000001c0: 1f38 1f3e de36 31be d8a4 11be 3a4d cc3d
000001d0: f561 10be ee74 01be 8ab4 b73d 00d5 7abb
000001e0: 9a47 a93d b01f 213c f49e 053d 8a13 c93d
000001f0: de68 bebd e12f 80bd 8381 f8bd 08ac d13c
00000200: 388c 243d 481a 19bd e593 b9bd 32c7 71bd
00000210: 3f4e dc3d 8b54 0dbe 9619 a83b 1308 d3bd
00000220: cbf7 15be adad ef3c 2ae7 1ebe 0a37 3a3e
00000230: 587e bf3d 3226 723d 386b 4a3d 7538 cd3d
00000240: d67a 98bc 517b 14be 5c95 dcbd 87bd e4bd
00000250: 5bb1 9c3d 0764 b1bd 99cb da3c 7eea 0f3e
00000260: f445 0b3d 366b 53be 183b 9bbd 2bb1 8bbd
00000270: 0669 b0bd 0544 ff3c 2614 a6bd bd4e 0a3e
00000280: 4b02 89bc aa75 4e3d 8ffc 073d df6c af3d
00000290: 5427 83bd 784e c43b 2159 febb 1623 b53d
000002a0: d1cc d7bd 522a 19be b24a 21be c020 13be
000002b0: 7e2b 96bd dbbe 0abe 3143 cf3b d297 ba3c
000002c0: 6da2 2e3e 9eaf 0fbc 2855 273e 3ea9 233e
000002d0: 0184 183e aa64 c6bb 55ed e33d e7bb 223d
000002e0: 874c 64bd 3078 c8bd 75b2 3a3e 5749 213d
000002f0: a4fa 0d3e e62e 44be 4bcf 08be 9df1 f53d
00000300: 29ad 6d3c 82bb 2b3d 35e8 2f3e 1e4c 213e
00000310: 65aa 353e 393a 123e 4930 c6bc 615a 313e
00000320: 1730 dabc 69d9 5e3d 2ce0 153e dac7 17be
00000330: 9345 ad3d 90a5 873c 720f 153e 54ae a13d
00000340: 4093 5a3d 54c4 37be 1d68 59bd 6230 13be
00000350: 875e 73bd aa00 babc 51e2 a8bc 175a f33c
00000360: d897 efbd 4cd6 153e 39fb 1bbe f438 5f3d
00000370: b591 79bd f613 9c3d d908 04be e86a a4bd
00000380: ef3e 013d a081 90bc e5c7 e9bd 8f3f 0c3e
00000390: b047 d23d d984 d3bd 4115 283e fb81 98bd
000003a0: c1f5 b3bd 69d3 08be 8dc9 96bd c541 d1bd
000003b0: 8d60 21bd 2c66 fe3d 5cfb 3f3e dd9b 8ebc
000003c0: f3ed bd3d 01d1 203e 8e6b a7bd ec8e c73d
000003d0: f258 bcbb 9aa8 153e ac1a 053e d4c0 0dbd
000003e0: 1b0d 5cbd ba95 ddbc 3043 1d3d ce60 78ba
000003f0: fdcb c1bc 9c38 a1bd 85e1 0abd 4da9 613d
0.079867795 0.003607437 -0.017083913 0.0016092211 0.021012291 0.029218048 0.03332226 -0.009565726
0.15844311 0.04817973 -0.13864498 0.08686219 -0.08794193 0.15276398 -0.04118158 -0.09406266
-0.11765367 -0.12050548 -0.12106712 0.008674964 -0.13872552 -0.08169663 0.022620305 0.11368792
-0.06788156 -0.10051111 -0.15007743 0.033011436 -0.14553723 0.09141676 0.013172954 -0.1314525
0.16973497 -0.09687164 -0.16371839 -0.066675514 -0.0654904 -0.032874912 -0.04769835 -0.17358188
0.17375846 -0.11660342 0.055048168 -0.09836448 0.09789105 -0.012527764 -0.020902917 0.07958831
-0.015181437 0.03976603 -0.011634782 0.0062675774 0.10764225 -0.14654738 0.1673 0.08897595
-0.036222592 -0.14030947 -0.0671599 0.13466312 -0.11857106 -0.08507238 0.080754384 0.08184196
0.0035355985 0.11776386 0.16159128 0.011044219 0.10056509 0.11073451 0.1471539 -0.03948021
-0.1290807 0.005023271 0.11538626 0.12673773 0.061690405 0.14319696 -0.13588314 0.052294493
0.14170174 0.06627217 -0.017508432 -0.090274855 0.022464171 -0.15677546 -0.026582897 -0.12999971
0.06621723 -0.14346172 -0.1356323 -0.08652722 -0.025654122 -0.04484102 -0.16362749 -0.0057545304
-0.1064828 0.10986696 0.09016849 -0.1160361 0.08081029 -0.17005362 -0.09240789 0.07554741
-0.0950281 0.02475959 -0.16318515 0.07197997 -0.16962563 0.03716688 -0.042088777 -0.09409979
0.15548752 -0.17306086 -0.14223039 0.09975667 -0.14099868 -0.12642261 0.08969982 -0.003827393
0.0826561 0.009834215 0.032622293 0.0981818 -0.092973456 -0.06259132 -0.121340774 0.025594726
0.040172786 -0.03737858 -0.09061412 -0.059027858 0.10757112 -0.13801782 0.005130003 -0.103042744
-0.14645307 0.02925762 -0.1551787 0.18185058 0.0935027 0.059118457 0.049418658 0.10020534
-0.01861326 -0.14500166 -0.107706755 -0.11168962 0.07651015 -0.08661657 0.026708411 0.14054295
0.03400226 -0.20646366 -0.075796306 -0.068209015 -0.08613782 0.031160364 -0.08109312 0.13506599
-0.016724726 0.050405182 0.033199843 0.085656874 -0.064039856 0.0059907995 -0.00776209 0.08844583
-0.105371125 -0.1495755 -0.1575115 -0.14367962 -0.07332514 -0.13549368 0.0063251485 0.022777472
0.17054148 -0.008769898 0.16341078 0.1598253 0.14894105 -0.0060544806 0.11129252 0.03972998
-0.055737045 -0.09788549 0.18232138 0.039376583 0.13865143 -0.19158515 -0.13360326 0.12008975
0.014506617 0.04192687 0.17178424 0.15751693 0.17740782 0.14280023 -0.024192946 0.17319633
-0.02663426 0.054406557 0.14636296 -0.14822331 0.08460536 0.016558439 0.14556673 0.078945786
0.053363085 -0.17945987 -0.053077806 -0.14373925 -0.05941632 -0.022705395 -0.020615729 0.029706044
-0.11698884 0.14632529 -0.15232553 0.054497674 -0.060929973 0.07620995 -0.12894 -0.08028203
0.03155416 -0.017639935 -0.1141508 0.1369612 0.102675796 -0.10328073 0.16414358 -0.07446667
-0.08787108 -0.13361897 -0.073626615 -0.10217623 -0.03939872 0.124218315 0.1874823 -0.017408306
0.09273901 0.15704729 -0.08174811 0.09744057 -0.005747908 0.14615098 0.12998456 -0.034607723
-0.053723436 -0.027048934 0.038394153 -0.0009474874 -0.02365684 -0.078721255 -0.03390648 0.0550931

sequential/dense_1/MatMul f4 [32, 64]
00000000: 64fe 393e 08c2 2f3e 4437 593e 20ee f3bd
00000010: 0043 4c3e c05f dcbc 4033 5d3c 6004 1a3e
00000020: 1840 c33d e038 553e a02e c53c 00b5 aa3b
00000030: f0b4 0dbe 400c 46bc d8eb 3abe b040 70be
00000040: a06e bcbc e8b8 343e b435 76be 70ac 4dbd
00000050: 70f8 60bd 000b 73bc d82c 08be 3079 a63d
00000060: f849 8b3d e8d1 543e b8d2 48be f0b0 0abd
00000070: 8847 aa3d 1462 633e 30c9 8e3d 9c74 1b3e
00000080: bced 213e 20e0 69be b093 a6bd 5472 4c3e
00000090: 108d 49be 7006 4fbd 700e 2f3e f44f 003e
000000a0: 005a 43bd e06d 5e3d b095 87bd 18c8 b9bd
000000b0: f801 6e3e 50f2 24be 00b6 88bc a8e3 c7bd
000000c0: 346f 54be b027 0b3e c024 d0bc 805a 0ebd
000000d0: 7025 4e3d 401a 5f3c 7843 853d 04bc 7c3e
000000e0: c893 02be 4895 513e a82b 4e3e 48de e0bd
000000f0: f856 3e3e 006c c13a 1079 f3bd 2087 833c
00000100: 5cf6 6cbe ac13 313e 800d ddbc 004d 073c
00000110: e853 01be 20d6 693d 7090 1a3e c0f8 0ebe
00000120: 707c 35bd 9029 9e3d 2454 71be 740f 3fbe
00000130: 6863 7bbe 50c0 5a3d 0072 73bd e40c 63be
00000140: 7819 e33d 1093 6ebe 806d 21be 8c1d 20be
00000150: f0fe 3d3d c0b3 553c bc2f 1ebe 901a 81bd
00000160: fc86 0f3e 0cbe 4abe 483c 68be 20ea 91bd
00000170: a062 dbbd 88e6 4dbe 6490 4dbe 005e bb3b
00000180: d019 1cbe 9ce5 74be 00f4 e23a 84e1 26be
00000190: 781b f63d 907a fe3d 143e 0c3e e03b 8abc
000001a0: dc9a 2dbe 88ac e03d 443a 413e 20c3 623e
000001b0: 10d9 ebbd a855 3b3e 2c34 153e 78d5 0a3e
000001c0: 60da 20bd 28c1 1e3e 7094 4ebd 30c8 293e
000001d0: 6078 f6bd e892 7f3e 1048 3dbe 10f3 88bd
000001e0: 001e a1ba 08c6 3a3e 3ce3 7abe c09d 703d
000001f0: 607d ba3c 2446 5cbe d03a b1bd 280d 13be
00000200: 581f 1f3e 95ac e03c 2023 dd3d 74a6 7cbe
00000210: f05d 2f3e 00c6 923a 1c2c 0ebe 1cd1 78bc
00000220: 57b3 cb3d 98b0 a83d 30bf 173e db65 893d
00000230: 9d0c 72be a6de 4abe b6bf 6f3e ae4d 113e
00000240: a8c5 d73d aaae 133e 98ba 8dbd 109c 45be
00000250: 005d 513e 4cbf 263e dd0c 87be 9499 593e
00000260: 028b 00be 9420 6abe 232b a83c 1503 3cbd
00000270: 188d e13d 8848 91bd c001 5bbd 70c9 43be
00000280: 48bc c73d 1c99 4dbe 589c 3839 a46c 5f3e
00000290: 2667 183d d492 363e 74a3 fc3d 5a6e 453e
000002a0: 6042 8e3c e387 ca3d 41ad 0dbe c8d5 13be
000002b0: b013 2dbe 5f24 aebd fe1d 7d3d 7493 efbc
000002c0: 67c9 63be 503a 2a3e f092 823d 8bfd e7bd
000002d0: b0d2 4dbd 66bd 5fbe b024 2d3e 2034 0dbd
000002e0: ec3a 503e ec84 483e 005d 413e 1b39 853e
000002f0: bcbd 1bbe adc9 1c3e 6098 75bd 1399 02bd
00000300: 7821 f4bd 925f 393e 7778 b6bd 8046 bd3d
00000310: 864b debd d4fe 213e 7c7c 7fbe 8b46 603e
00000320: 9736 683c e0d0 1abd ef2e 353d 0d99 2a3e
00000330: 55b5 8c3e 61c9 373e 4af2 b63d be21 83be
00000340: a435 4dbe d5fe 5abd 4826 08be c058 5ebc
00000350: 0f9a 9abd c44a 103e 881b 213e e009 9bbd
00000360: de11 6cbd 7034 2c3d c210 54bd dba5 5d3e
00000370: 00a2 e8bd 40eb 10be b80f 493e 28dc e6bd
00000380: 38db 853d 049f 023e 3e80 963d e217 cdbc
00000390: 4488 e83d 17e8 34be e3c1 bb3d 1962 983e
000003a0: 5d38 053e bdad 583c 6ae7 0c3c 70ce 623d
000003b0: 98af 2c3e 466d 7e3e 6d8d df3c 0e88 1c3e
000003c0: 6ea9 69be 8016 1c3c 003f 9e3b 944f c53d
000003d0: 38b5 03be 5acb eb3d 50b8 33bd e032 373e
000003e0: 70a0 10bd 94c3 5dbe 36e7 8c3e 26a8 973c
000003f0: 8050 e5bd 0f2f 2ebe a9b4 46bd 4327 c0bc
0.18163449 0.17163861 0.21212488 -0.11910653 0.19947433 -0.026901126 0.0135009885 0.15040731
0.09533709 0.20822477 0.024070084 0.005209565 -0.13838553 -0.012087882 -0.1825403 -0.23462176
-0.023001969 0.17648661 -0.24043924 -0.050213277 -0.05492443 -0.014834166 -0.13298357 0.081285834
0.06801218 0.20783198 -0.19611633 -0.033860147 0.08314425 0.22205383 0.06971967 0.15181202
0.15813345 -0.22839403 -0.08133638 0.19965488 -0.19682717 -0.05054325 0.17095351 0.125305
-0.047693253 0.054304004 -0.066203475 -0.09071368 0.23242939 -0.1610806 -0.016688347 -0.09760219
-0.20745546 0.13589358 -0.025408149 -0.034754276 0.050328672 0.013617098 0.06507009 0.24681097
-0.12751687 0.20467103 0.20133841 -0.10979897 0.18587863 0.0014756918 -0.11888325 0.016055644
-0.23140854 0.1729266 -0.026983976 0.008258104 -0.12629664 0.05708897 0.15094161 -0.13962078
-0.044308126 0.07722771 -0.23567253 -0.18658239 -0.24549639 0.05340606 -0.05943489 -0.22172886
0.11088842 -0.23298287 -0.15764427 -0.15636271 0.046385705 0.013043344 -0.15447897 -0.063038945
0.14016336 -0.1979906 -0.22679245 -0.07124734 -0.107121706 -0.20107472 -0.20074612 0.005717993
-0.15244222 -0.23915714 0.0017315149 -0.16296965 0.12016958 0.12425721 0.13695556 -0.016874254
-0.16953605 0.10970408 0.18869883 0.22144747 -0.11516011 0.18294394 0.14570683 0.13557994
-0.03927076 0.15503371 -0.05043453 0.16580272 -0.120346785 0.24958384 -0.18484521 -0.066869855
-0.0012292266 0.18239605 -0.24500746 0.058744192 0.022764862 -0.21511132 -0.08653796 -0.14360487
0.155393 0.027426044 0.10797715 -0.24672872 0.17125678 0.0011197925 -0.13884014 -0.015186574
0.09946316 0.082368076 0.14819026 0.067088805 -0.23637624 -0.19811496 0.23412976 0.14189789
0.10535747 0.14422098 -0.069203556 -0.19297814 0.20445633 0.16283911 -0.26377 0.21249992
-0.12553027 -0.2286399 0.020528382 -0.045901377 0.110132396 -0.07093912 -0.053468466 -0.19119811
0.09752709 -0.20077938 0.0001760585 0.21818787 0.037207745 0.17829448 0.12335864 0.19280377
0.017365634 0.098891996 -0.13835622 -0.1443702 -0.16902041 -0.08503031 0.06179618 -0.029245116
-0.22244798 0.16623807 0.06375682 -0.11327656 -0.050249755 -0.21849594 0.16908526 -0.03447354
0.20334977 0.19581956 0.18883133 0.2602013 -0.15209097 0.15311308 -0.05995977 -0.031884264
-0.11920446 0.18102863 -0.089096956 0.092419624 -0.10854249 0.15819865 -0.24949831 0.2190191
0.0141731715 -0.037796855 0.044234212 0.16659947 0.27482095 0.17947914 0.08932932 -0.2561168
-0.20039994 -0.053465683 -0.13295853 -0.013570964 -0.075489156 0.14091021 0.15733159 -0.07570243
-0.057634227 0.042042196 -0.051773794 0.216453 -0.11359024 -0.14152241 0.19634902 -0.1127246
0.06535953 0.12755972 0.07348679 -0.025035802 0.113541156 -0.1766666 0.0916784 0.29762343
0.13009782 0.013225016 0.008600095 0.055372655 0.16863859 0.24846372 0.027289117 0.15286276
-0.22818539 0.009526849 0.0048292875 0.09634319 -0.12862098 0.115133956 -0.043876946 0.17890501
-0.035309255 -0.21656638 0.2752015 0.018512797 -0.11196995 -0.17010139 -0.048512135 -0.023456221

sequential/dense_2/MatMul f4 [2, 32]
00000000: 7ed1 6a3e df56 c5be 9416 953e 708e 6dbe
00000010: bdeb e13e 8f51 bc3e 26c2 013e 77df 1c3c
00000020: ac0c 0bbd f52b ea3e 42e0 ab3e 70e5 2abd
00000030: b543 f93d 41e3 3abd 5243 e6be 88e5 553d
00000040: 8c05 153e 98d2 05bd 5105 bcbe 1759 6d3d
00000050: efcc 39be cf6b bbbe c538 c63e 92a1 6b3e
00000060: f7a4 9fbe f80c 69bd e154 973d e998 0cbe
00000070: f361 243e 9b12 d4bd 634a a8be 66a5 98be
00000080: 4215 643e f6f8 04be ef02 b9be 7cf2 803e
00000090: 3252 34be 942c 1ebe 2f10 c13e 183a 42be
000000a0: fd70 d03e a276 7fba bfe2 de3d ea85 763e
000000b0: ab8e 513e 40f5 8ebe beae 96be 67ce b9be
000000c0: 33ce 1bbd 99a8 81be a6cd db3e 9eba 74be
000000d0: e057 15be f61a c53e a2aa 3abe e630 88be
000000e0: 98e2 01be bc11 abbe 4a77 8bbe d6ef a3bd
000000f0: e131 4a3e f6ae aa3d 9fd7 d53e a98a bdbe
0.22931477 -0.3854284 0.29118788 -0.23198867 0.44125167 0.36780974 0.12671718 0.009574763
-0.03394763 0.45736662 0.33569533 -0.041722715 0.12171117 -0.045626882 -0.44973236 0.05222085
0.14552897 -0.03267154 -0.36722806 0.05794629 -0.18144582 -0.3660569 0.38715187 0.23010853
-0.31180546 -0.056897134 0.07389236 -0.13730206 0.1605299 -0.10355111 -0.32869253 -0.2981369
0.22273734 -0.12985596 -0.3613505 0.25185 -0.1760948 -0.15446693 0.3770766 -0.18967474
0.40711203 -0.00097451557 0.10883092 0.24074522 0.2046458 -0.27921486 -0.29430193 -0.36290285
-0.038038444 -0.25323942 0.42930335 -0.23899314 -0.14584303 0.38497132 -0.18229154 -0.26599807
-0.12684095 -0.33411968 -0.27239448 -0.080047294 0.1974559 0.083341524 0.41766068 -0.37019852
